[2024-04-16 11:06:31,851][train_withPIB.py][line:85][INFO] Generator(
  (conv1): Conv2d(3, 60, kernel_size=(3, 3), stride=(1, 1), padding=(1, 1))
  (trunk): Sequential(
    (0): ResidualResidualDenseBlock(
      (rdb1): ResidualDenseBlock(
        (conv1): Conv2d(60, 30, kernel_size=(3, 3), stride=(1, 1), padding=(1, 1))
        (conv2): Conv2d(90, 30, kernel_size=(3, 3), stride=(1, 1), padding=(1, 1))
        (conv3): Conv2d(120, 30, kernel_size=(3, 3), stride=(1, 1), padding=(1, 1))
        (conv4): Conv2d(150, 30, kernel_size=(3, 3), stride=(1, 1), padding=(1, 1))
        (conv5): Conv2d(180, 60, kernel_size=(3, 3), stride=(1, 1), padding=(1, 1))
        (leaky_relu): LeakyReLU(negative_slope=0.2, inplace=True)
        (identity): Identity()
      )
      (rdb2): ResidualDenseBlock(
        (conv1): Conv2d(60, 30, kernel_size=(3, 3), stride=(1, 1), padding=(1, 1))
        (conv2): Conv2d(90, 30, kernel_size=(3, 3), stride=(1, 1), padding=(1, 1))
        (conv3): Conv2d(120, 30, kernel_size=(3, 3), stride=(1, 1), padding=(1, 1))
        (conv4): Conv2d(150, 30, kernel_size=(3, 3), stride=(1, 1), padding=(1, 1))
        (conv5): Conv2d(180, 60, kernel_size=(3, 3), stride=(1, 1), padding=(1, 1))
        (leaky_relu): LeakyReLU(negative_slope=0.2, inplace=True)
        (identity): Identity()
      )
      (rdb3): ResidualDenseBlock(
        (conv1): Conv2d(60, 30, kernel_size=(3, 3), stride=(1, 1), padding=(1, 1))
        (conv2): Conv2d(90, 30, kernel_size=(3, 3), stride=(1, 1), padding=(1, 1))
        (conv3): Conv2d(120, 30, kernel_size=(3, 3), stride=(1, 1), padding=(1, 1))
        (conv4): Conv2d(150, 30, kernel_size=(3, 3), stride=(1, 1), padding=(1, 1))
        (conv5): Conv2d(180, 60, kernel_size=(3, 3), stride=(1, 1), padding=(1, 1))
        (leaky_relu): LeakyReLU(negative_slope=0.2, inplace=True)
        (identity): Identity()
      )
    )
    (1): ResidualResidualDenseBlock(
      (rdb1): ResidualDenseBlock(
        (conv1): Conv2d(60, 30, kernel_size=(3, 3), stride=(1, 1), padding=(1, 1))
        (conv2): Conv2d(90, 30, kernel_size=(3, 3), stride=(1, 1), padding=(1, 1))
        (conv3): Conv2d(120, 30, kernel_size=(3, 3), stride=(1, 1), padding=(1, 1))
        (conv4): Conv2d(150, 30, kernel_size=(3, 3), stride=(1, 1), padding=(1, 1))
        (conv5): Conv2d(180, 60, kernel_size=(3, 3), stride=(1, 1), padding=(1, 1))
        (leaky_relu): LeakyReLU(negative_slope=0.2, inplace=True)
        (identity): Identity()
      )
      (rdb2): ResidualDenseBlock(
        (conv1): Conv2d(60, 30, kernel_size=(3, 3), stride=(1, 1), padding=(1, 1))
        (conv2): Conv2d(90, 30, kernel_size=(3, 3), stride=(1, 1), padding=(1, 1))
        (conv3): Conv2d(120, 30, kernel_size=(3, 3), stride=(1, 1), padding=(1, 1))
        (conv4): Conv2d(150, 30, kernel_size=(3, 3), stride=(1, 1), padding=(1, 1))
        (conv5): Conv2d(180, 60, kernel_size=(3, 3), stride=(1, 1), padding=(1, 1))
        (leaky_relu): LeakyReLU(negative_slope=0.2, inplace=True)
        (identity): Identity()
      )
      (rdb3): ResidualDenseBlock(
        (conv1): Conv2d(60, 30, kernel_size=(3, 3), stride=(1, 1), padding=(1, 1))
        (conv2): Conv2d(90, 30, kernel_size=(3, 3), stride=(1, 1), padding=(1, 1))
        (conv3): Conv2d(120, 30, kernel_size=(3, 3), stride=(1, 1), padding=(1, 1))
        (conv4): Conv2d(150, 30, kernel_size=(3, 3), stride=(1, 1), padding=(1, 1))
        (conv5): Conv2d(180, 60, kernel_size=(3, 3), stride=(1, 1), padding=(1, 1))
        (leaky_relu): LeakyReLU(negative_slope=0.2, inplace=True)
        (identity): Identity()
      )
    )
    (2): ResidualResidualDenseBlock(
      (rdb1): ResidualDenseBlock(
        (conv1): Conv2d(60, 30, kernel_size=(3, 3), stride=(1, 1), padding=(1, 1))
        (conv2): Conv2d(90, 30, kernel_size=(3, 3), stride=(1, 1), padding=(1, 1))
        (conv3): Conv2d(120, 30, kernel_size=(3, 3), stride=(1, 1), padding=(1, 1))
        (conv4): Conv2d(150, 30, kernel_size=(3, 3), stride=(1, 1), padding=(1, 1))
        (conv5): Conv2d(180, 60, kernel_size=(3, 3), stride=(1, 1), padding=(1, 1))
        (leaky_relu): LeakyReLU(negative_slope=0.2, inplace=True)
        (identity): Identity()
      )
      (rdb2): ResidualDenseBlock(
        (conv1): Conv2d(60, 30, kernel_size=(3, 3), stride=(1, 1), padding=(1, 1))
        (conv2): Conv2d(90, 30, kernel_size=(3, 3), stride=(1, 1), padding=(1, 1))
        (conv3): Conv2d(120, 30, kernel_size=(3, 3), stride=(1, 1), padding=(1, 1))
        (conv4): Conv2d(150, 30, kernel_size=(3, 3), stride=(1, 1), padding=(1, 1))
        (conv5): Conv2d(180, 60, kernel_size=(3, 3), stride=(1, 1), padding=(1, 1))
        (leaky_relu): LeakyReLU(negative_slope=0.2, inplace=True)
        (identity): Identity()
      )
      (rdb3): ResidualDenseBlock(
        (conv1): Conv2d(60, 30, kernel_size=(3, 3), stride=(1, 1), padding=(1, 1))
        (conv2): Conv2d(90, 30, kernel_size=(3, 3), stride=(1, 1), padding=(1, 1))
        (conv3): Conv2d(120, 30, kernel_size=(3, 3), stride=(1, 1), padding=(1, 1))
        (conv4): Conv2d(150, 30, kernel_size=(3, 3), stride=(1, 1), padding=(1, 1))
        (conv5): Conv2d(180, 60, kernel_size=(3, 3), stride=(1, 1), padding=(1, 1))
        (leaky_relu): LeakyReLU(negative_slope=0.2, inplace=True)
        (identity): Identity()
      )
    )
    (3): ResidualResidualDenseBlock(
      (rdb1): ResidualDenseBlock(
        (conv1): Conv2d(60, 30, kernel_size=(3, 3), stride=(1, 1), padding=(1, 1))
        (conv2): Conv2d(90, 30, kernel_size=(3, 3), stride=(1, 1), padding=(1, 1))
        (conv3): Conv2d(120, 30, kernel_size=(3, 3), stride=(1, 1), padding=(1, 1))
        (conv4): Conv2d(150, 30, kernel_size=(3, 3), stride=(1, 1), padding=(1, 1))
        (conv5): Conv2d(180, 60, kernel_size=(3, 3), stride=(1, 1), padding=(1, 1))
        (leaky_relu): LeakyReLU(negative_slope=0.2, inplace=True)
        (identity): Identity()
      )
      (rdb2): ResidualDenseBlock(
        (conv1): Conv2d(60, 30, kernel_size=(3, 3), stride=(1, 1), padding=(1, 1))
        (conv2): Conv2d(90, 30, kernel_size=(3, 3), stride=(1, 1), padding=(1, 1))
        (conv3): Conv2d(120, 30, kernel_size=(3, 3), stride=(1, 1), padding=(1, 1))
        (conv4): Conv2d(150, 30, kernel_size=(3, 3), stride=(1, 1), padding=(1, 1))
        (conv5): Conv2d(180, 60, kernel_size=(3, 3), stride=(1, 1), padding=(1, 1))
        (leaky_relu): LeakyReLU(negative_slope=0.2, inplace=True)
        (identity): Identity()
      )
      (rdb3): ResidualDenseBlock(
        (conv1): Conv2d(60, 30, kernel_size=(3, 3), stride=(1, 1), padding=(1, 1))
        (conv2): Conv2d(90, 30, kernel_size=(3, 3), stride=(1, 1), padding=(1, 1))
        (conv3): Conv2d(120, 30, kernel_size=(3, 3), stride=(1, 1), padding=(1, 1))
        (conv4): Conv2d(150, 30, kernel_size=(3, 3), stride=(1, 1), padding=(1, 1))
        (conv5): Conv2d(180, 60, kernel_size=(3, 3), stride=(1, 1), padding=(1, 1))
        (leaky_relu): LeakyReLU(negative_slope=0.2, inplace=True)
        (identity): Identity()
      )
    )
    (4): ResidualResidualDenseBlock(
      (rdb1): ResidualDenseBlock(
        (conv1): Conv2d(60, 30, kernel_size=(3, 3), stride=(1, 1), padding=(1, 1))
        (conv2): Conv2d(90, 30, kernel_size=(3, 3), stride=(1, 1), padding=(1, 1))
        (conv3): Conv2d(120, 30, kernel_size=(3, 3), stride=(1, 1), padding=(1, 1))
        (conv4): Conv2d(150, 30, kernel_size=(3, 3), stride=(1, 1), padding=(1, 1))
        (conv5): Conv2d(180, 60, kernel_size=(3, 3), stride=(1, 1), padding=(1, 1))
        (leaky_relu): LeakyReLU(negative_slope=0.2, inplace=True)
        (identity): Identity()
      )
      (rdb2): ResidualDenseBlock(
        (conv1): Conv2d(60, 30, kernel_size=(3, 3), stride=(1, 1), padding=(1, 1))
        (conv2): Conv2d(90, 30, kernel_size=(3, 3), stride=(1, 1), padding=(1, 1))
        (conv3): Conv2d(120, 30, kernel_size=(3, 3), stride=(1, 1), padding=(1, 1))
        (conv4): Conv2d(150, 30, kernel_size=(3, 3), stride=(1, 1), padding=(1, 1))
        (conv5): Conv2d(180, 60, kernel_size=(3, 3), stride=(1, 1), padding=(1, 1))
        (leaky_relu): LeakyReLU(negative_slope=0.2, inplace=True)
        (identity): Identity()
      )
      (rdb3): ResidualDenseBlock(
        (conv1): Conv2d(60, 30, kernel_size=(3, 3), stride=(1, 1), padding=(1, 1))
        (conv2): Conv2d(90, 30, kernel_size=(3, 3), stride=(1, 1), padding=(1, 1))
        (conv3): Conv2d(120, 30, kernel_size=(3, 3), stride=(1, 1), padding=(1, 1))
        (conv4): Conv2d(150, 30, kernel_size=(3, 3), stride=(1, 1), padding=(1, 1))
        (conv5): Conv2d(180, 60, kernel_size=(3, 3), stride=(1, 1), padding=(1, 1))
        (leaky_relu): LeakyReLU(negative_slope=0.2, inplace=True)
        (identity): Identity()
      )
    )
    (5): ResidualResidualDenseBlock(
      (rdb1): ResidualDenseBlock(
        (conv1): Conv2d(60, 30, kernel_size=(3, 3), stride=(1, 1), padding=(1, 1))
        (conv2): Conv2d(90, 30, kernel_size=(3, 3), stride=(1, 1), padding=(1, 1))
        (conv3): Conv2d(120, 30, kernel_size=(3, 3), stride=(1, 1), padding=(1, 1))
        (conv4): Conv2d(150, 30, kernel_size=(3, 3), stride=(1, 1), padding=(1, 1))
        (conv5): Conv2d(180, 60, kernel_size=(3, 3), stride=(1, 1), padding=(1, 1))
        (leaky_relu): LeakyReLU(negative_slope=0.2, inplace=True)
        (identity): Identity()
      )
      (rdb2): ResidualDenseBlock(
        (conv1): Conv2d(60, 30, kernel_size=(3, 3), stride=(1, 1), padding=(1, 1))
        (conv2): Conv2d(90, 30, kernel_size=(3, 3), stride=(1, 1), padding=(1, 1))
        (conv3): Conv2d(120, 30, kernel_size=(3, 3), stride=(1, 1), padding=(1, 1))
        (conv4): Conv2d(150, 30, kernel_size=(3, 3), stride=(1, 1), padding=(1, 1))
        (conv5): Conv2d(180, 60, kernel_size=(3, 3), stride=(1, 1), padding=(1, 1))
        (leaky_relu): LeakyReLU(negative_slope=0.2, inplace=True)
        (identity): Identity()
      )
      (rdb3): ResidualDenseBlock(
        (conv1): Conv2d(60, 30, kernel_size=(3, 3), stride=(1, 1), padding=(1, 1))
        (conv2): Conv2d(90, 30, kernel_size=(3, 3), stride=(1, 1), padding=(1, 1))
        (conv3): Conv2d(120, 30, kernel_size=(3, 3), stride=(1, 1), padding=(1, 1))
        (conv4): Conv2d(150, 30, kernel_size=(3, 3), stride=(1, 1), padding=(1, 1))
        (conv5): Conv2d(180, 60, kernel_size=(3, 3), stride=(1, 1), padding=(1, 1))
        (leaky_relu): LeakyReLU(negative_slope=0.2, inplace=True)
        (identity): Identity()
      )
    )
    (6): ResidualResidualDenseBlock(
      (rdb1): ResidualDenseBlock(
        (conv1): Conv2d(60, 30, kernel_size=(3, 3), stride=(1, 1), padding=(1, 1))
        (conv2): Conv2d(90, 30, kernel_size=(3, 3), stride=(1, 1), padding=(1, 1))
        (conv3): Conv2d(120, 30, kernel_size=(3, 3), stride=(1, 1), padding=(1, 1))
        (conv4): Conv2d(150, 30, kernel_size=(3, 3), stride=(1, 1), padding=(1, 1))
        (conv5): Conv2d(180, 60, kernel_size=(3, 3), stride=(1, 1), padding=(1, 1))
        (leaky_relu): LeakyReLU(negative_slope=0.2, inplace=True)
        (identity): Identity()
      )
      (rdb2): ResidualDenseBlock(
        (conv1): Conv2d(60, 30, kernel_size=(3, 3), stride=(1, 1), padding=(1, 1))
        (conv2): Conv2d(90, 30, kernel_size=(3, 3), stride=(1, 1), padding=(1, 1))
        (conv3): Conv2d(120, 30, kernel_size=(3, 3), stride=(1, 1), padding=(1, 1))
        (conv4): Conv2d(150, 30, kernel_size=(3, 3), stride=(1, 1), padding=(1, 1))
        (conv5): Conv2d(180, 60, kernel_size=(3, 3), stride=(1, 1), padding=(1, 1))
        (leaky_relu): LeakyReLU(negative_slope=0.2, inplace=True)
        (identity): Identity()
      )
      (rdb3): ResidualDenseBlock(
        (conv1): Conv2d(60, 30, kernel_size=(3, 3), stride=(1, 1), padding=(1, 1))
        (conv2): Conv2d(90, 30, kernel_size=(3, 3), stride=(1, 1), padding=(1, 1))
        (conv3): Conv2d(120, 30, kernel_size=(3, 3), stride=(1, 1), padding=(1, 1))
        (conv4): Conv2d(150, 30, kernel_size=(3, 3), stride=(1, 1), padding=(1, 1))
        (conv5): Conv2d(180, 60, kernel_size=(3, 3), stride=(1, 1), padding=(1, 1))
        (leaky_relu): LeakyReLU(negative_slope=0.2, inplace=True)
        (identity): Identity()
      )
    )
    (7): ResidualResidualDenseBlock(
      (rdb1): ResidualDenseBlock(
        (conv1): Conv2d(60, 30, kernel_size=(3, 3), stride=(1, 1), padding=(1, 1))
        (conv2): Conv2d(90, 30, kernel_size=(3, 3), stride=(1, 1), padding=(1, 1))
        (conv3): Conv2d(120, 30, kernel_size=(3, 3), stride=(1, 1), padding=(1, 1))
        (conv4): Conv2d(150, 30, kernel_size=(3, 3), stride=(1, 1), padding=(1, 1))
        (conv5): Conv2d(180, 60, kernel_size=(3, 3), stride=(1, 1), padding=(1, 1))
        (leaky_relu): LeakyReLU(negative_slope=0.2, inplace=True)
        (identity): Identity()
      )
      (rdb2): ResidualDenseBlock(
        (conv1): Conv2d(60, 30, kernel_size=(3, 3), stride=(1, 1), padding=(1, 1))
        (conv2): Conv2d(90, 30, kernel_size=(3, 3), stride=(1, 1), padding=(1, 1))
        (conv3): Conv2d(120, 30, kernel_size=(3, 3), stride=(1, 1), padding=(1, 1))
        (conv4): Conv2d(150, 30, kernel_size=(3, 3), stride=(1, 1), padding=(1, 1))
        (conv5): Conv2d(180, 60, kernel_size=(3, 3), stride=(1, 1), padding=(1, 1))
        (leaky_relu): LeakyReLU(negative_slope=0.2, inplace=True)
        (identity): Identity()
      )
      (rdb3): ResidualDenseBlock(
        (conv1): Conv2d(60, 30, kernel_size=(3, 3), stride=(1, 1), padding=(1, 1))
        (conv2): Conv2d(90, 30, kernel_size=(3, 3), stride=(1, 1), padding=(1, 1))
        (conv3): Conv2d(120, 30, kernel_size=(3, 3), stride=(1, 1), padding=(1, 1))
        (conv4): Conv2d(150, 30, kernel_size=(3, 3), stride=(1, 1), padding=(1, 1))
        (conv5): Conv2d(180, 60, kernel_size=(3, 3), stride=(1, 1), padding=(1, 1))
        (leaky_relu): LeakyReLU(negative_slope=0.2, inplace=True)
        (identity): Identity()
      )
    )
    (8): ResidualResidualDenseBlock(
      (rdb1): ResidualDenseBlock(
        (conv1): Conv2d(60, 30, kernel_size=(3, 3), stride=(1, 1), padding=(1, 1))
        (conv2): Conv2d(90, 30, kernel_size=(3, 3), stride=(1, 1), padding=(1, 1))
        (conv3): Conv2d(120, 30, kernel_size=(3, 3), stride=(1, 1), padding=(1, 1))
        (conv4): Conv2d(150, 30, kernel_size=(3, 3), stride=(1, 1), padding=(1, 1))
        (conv5): Conv2d(180, 60, kernel_size=(3, 3), stride=(1, 1), padding=(1, 1))
        (leaky_relu): LeakyReLU(negative_slope=0.2, inplace=True)
        (identity): Identity()
      )
      (rdb2): ResidualDenseBlock(
        (conv1): Conv2d(60, 30, kernel_size=(3, 3), stride=(1, 1), padding=(1, 1))
        (conv2): Conv2d(90, 30, kernel_size=(3, 3), stride=(1, 1), padding=(1, 1))
        (conv3): Conv2d(120, 30, kernel_size=(3, 3), stride=(1, 1), padding=(1, 1))
        (conv4): Conv2d(150, 30, kernel_size=(3, 3), stride=(1, 1), padding=(1, 1))
        (conv5): Conv2d(180, 60, kernel_size=(3, 3), stride=(1, 1), padding=(1, 1))
        (leaky_relu): LeakyReLU(negative_slope=0.2, inplace=True)
        (identity): Identity()
      )
      (rdb3): ResidualDenseBlock(
        (conv1): Conv2d(60, 30, kernel_size=(3, 3), stride=(1, 1), padding=(1, 1))
        (conv2): Conv2d(90, 30, kernel_size=(3, 3), stride=(1, 1), padding=(1, 1))
        (conv3): Conv2d(120, 30, kernel_size=(3, 3), stride=(1, 1), padding=(1, 1))
        (conv4): Conv2d(150, 30, kernel_size=(3, 3), stride=(1, 1), padding=(1, 1))
        (conv5): Conv2d(180, 60, kernel_size=(3, 3), stride=(1, 1), padding=(1, 1))
        (leaky_relu): LeakyReLU(negative_slope=0.2, inplace=True)
        (identity): Identity()
      )
    )
    (9): ResidualResidualDenseBlock(
      (rdb1): ResidualDenseBlock(
        (conv1): Conv2d(60, 30, kernel_size=(3, 3), stride=(1, 1), padding=(1, 1))
        (conv2): Conv2d(90, 30, kernel_size=(3, 3), stride=(1, 1), padding=(1, 1))
        (conv3): Conv2d(120, 30, kernel_size=(3, 3), stride=(1, 1), padding=(1, 1))
        (conv4): Conv2d(150, 30, kernel_size=(3, 3), stride=(1, 1), padding=(1, 1))
        (conv5): Conv2d(180, 60, kernel_size=(3, 3), stride=(1, 1), padding=(1, 1))
        (leaky_relu): LeakyReLU(negative_slope=0.2, inplace=True)
        (identity): Identity()
      )
      (rdb2): ResidualDenseBlock(
        (conv1): Conv2d(60, 30, kernel_size=(3, 3), stride=(1, 1), padding=(1, 1))
        (conv2): Conv2d(90, 30, kernel_size=(3, 3), stride=(1, 1), padding=(1, 1))
        (conv3): Conv2d(120, 30, kernel_size=(3, 3), stride=(1, 1), padding=(1, 1))
        (conv4): Conv2d(150, 30, kernel_size=(3, 3), stride=(1, 1), padding=(1, 1))
        (conv5): Conv2d(180, 60, kernel_size=(3, 3), stride=(1, 1), padding=(1, 1))
        (leaky_relu): LeakyReLU(negative_slope=0.2, inplace=True)
        (identity): Identity()
      )
      (rdb3): ResidualDenseBlock(
        (conv1): Conv2d(60, 30, kernel_size=(3, 3), stride=(1, 1), padding=(1, 1))
        (conv2): Conv2d(90, 30, kernel_size=(3, 3), stride=(1, 1), padding=(1, 1))
        (conv3): Conv2d(120, 30, kernel_size=(3, 3), stride=(1, 1), padding=(1, 1))
        (conv4): Conv2d(150, 30, kernel_size=(3, 3), stride=(1, 1), padding=(1, 1))
        (conv5): Conv2d(180, 60, kernel_size=(3, 3), stride=(1, 1), padding=(1, 1))
        (leaky_relu): LeakyReLU(negative_slope=0.2, inplace=True)
        (identity): Identity()
      )
    )
    (10): ResidualResidualDenseBlock(
      (rdb1): ResidualDenseBlock(
        (conv1): Conv2d(60, 30, kernel_size=(3, 3), stride=(1, 1), padding=(1, 1))
        (conv2): Conv2d(90, 30, kernel_size=(3, 3), stride=(1, 1), padding=(1, 1))
        (conv3): Conv2d(120, 30, kernel_size=(3, 3), stride=(1, 1), padding=(1, 1))
        (conv4): Conv2d(150, 30, kernel_size=(3, 3), stride=(1, 1), padding=(1, 1))
        (conv5): Conv2d(180, 60, kernel_size=(3, 3), stride=(1, 1), padding=(1, 1))
        (leaky_relu): LeakyReLU(negative_slope=0.2, inplace=True)
        (identity): Identity()
      )
      (rdb2): ResidualDenseBlock(
        (conv1): Conv2d(60, 30, kernel_size=(3, 3), stride=(1, 1), padding=(1, 1))
        (conv2): Conv2d(90, 30, kernel_size=(3, 3), stride=(1, 1), padding=(1, 1))
        (conv3): Conv2d(120, 30, kernel_size=(3, 3), stride=(1, 1), padding=(1, 1))
        (conv4): Conv2d(150, 30, kernel_size=(3, 3), stride=(1, 1), padding=(1, 1))
        (conv5): Conv2d(180, 60, kernel_size=(3, 3), stride=(1, 1), padding=(1, 1))
        (leaky_relu): LeakyReLU(negative_slope=0.2, inplace=True)
        (identity): Identity()
      )
      (rdb3): ResidualDenseBlock(
        (conv1): Conv2d(60, 30, kernel_size=(3, 3), stride=(1, 1), padding=(1, 1))
        (conv2): Conv2d(90, 30, kernel_size=(3, 3), stride=(1, 1), padding=(1, 1))
        (conv3): Conv2d(120, 30, kernel_size=(3, 3), stride=(1, 1), padding=(1, 1))
        (conv4): Conv2d(150, 30, kernel_size=(3, 3), stride=(1, 1), padding=(1, 1))
        (conv5): Conv2d(180, 60, kernel_size=(3, 3), stride=(1, 1), padding=(1, 1))
        (leaky_relu): LeakyReLU(negative_slope=0.2, inplace=True)
        (identity): Identity()
      )
    )
    (11): ResidualResidualDenseBlock(
      (rdb1): ResidualDenseBlock(
        (conv1): Conv2d(60, 30, kernel_size=(3, 3), stride=(1, 1), padding=(1, 1))
        (conv2): Conv2d(90, 30, kernel_size=(3, 3), stride=(1, 1), padding=(1, 1))
        (conv3): Conv2d(120, 30, kernel_size=(3, 3), stride=(1, 1), padding=(1, 1))
        (conv4): Conv2d(150, 30, kernel_size=(3, 3), stride=(1, 1), padding=(1, 1))
        (conv5): Conv2d(180, 60, kernel_size=(3, 3), stride=(1, 1), padding=(1, 1))
        (leaky_relu): LeakyReLU(negative_slope=0.2, inplace=True)
        (identity): Identity()
      )
      (rdb2): ResidualDenseBlock(
        (conv1): Conv2d(60, 30, kernel_size=(3, 3), stride=(1, 1), padding=(1, 1))
        (conv2): Conv2d(90, 30, kernel_size=(3, 3), stride=(1, 1), padding=(1, 1))
        (conv3): Conv2d(120, 30, kernel_size=(3, 3), stride=(1, 1), padding=(1, 1))
        (conv4): Conv2d(150, 30, kernel_size=(3, 3), stride=(1, 1), padding=(1, 1))
        (conv5): Conv2d(180, 60, kernel_size=(3, 3), stride=(1, 1), padding=(1, 1))
        (leaky_relu): LeakyReLU(negative_slope=0.2, inplace=True)
        (identity): Identity()
      )
      (rdb3): ResidualDenseBlock(
        (conv1): Conv2d(60, 30, kernel_size=(3, 3), stride=(1, 1), padding=(1, 1))
        (conv2): Conv2d(90, 30, kernel_size=(3, 3), stride=(1, 1), padding=(1, 1))
        (conv3): Conv2d(120, 30, kernel_size=(3, 3), stride=(1, 1), padding=(1, 1))
        (conv4): Conv2d(150, 30, kernel_size=(3, 3), stride=(1, 1), padding=(1, 1))
        (conv5): Conv2d(180, 60, kernel_size=(3, 3), stride=(1, 1), padding=(1, 1))
        (leaky_relu): LeakyReLU(negative_slope=0.2, inplace=True)
        (identity): Identity()
      )
    )
  )
  (conv2): Conv2d(60, 60, kernel_size=(3, 3), stride=(1, 1), padding=(1, 1))
  (upsampling): Sequential(
    (0): Conv2d(60, 60, kernel_size=(3, 3), stride=(1, 1), padding=(1, 1))
    (1): LeakyReLU(negative_slope=0.2, inplace=True)
  )
  (conv3): Sequential(
    (0): Conv2d(60, 60, kernel_size=(3, 3), stride=(1, 1), padding=(1, 1))
    (1): LeakyReLU(negative_slope=0.2, inplace=True)
  )
  (conv4): Conv2d(60, 3, kernel_size=(3, 3), stride=(1, 1), padding=(1, 1))
)
[2024-04-16 11:06:37,817][pib_utils.py][line:281][INFO] ##===========pib-training=============##
[2024-04-16 11:06:48,461][pib_utils.py][line:321][INFO] Epoch:000, 00160/64000, loss: 38.7067, time: 10.641, lr: 0.0002
[2024-04-16 11:06:53,411][pib_utils.py][line:321][INFO] Epoch:000, 00320/64000, loss: 38.5804, time: 4.950, lr: 0.0002
[2024-04-16 11:06:58,419][pib_utils.py][line:321][INFO] Epoch:000, 00480/64000, loss: 42.3465, time: 5.008, lr: 0.0002
…
